netG_epoch_100.pth (torch_old, 358501 bytes, 49 tensors)

encoder.0.weight f4 [8, 1, 3, 3]
000000 59 24 99 40 ca 22 b3 3f c6 23 64 bf f7 49 4b 3f
       4.785687 1.3994992 -0.89117086 0.79409736
000010 09 0e 89 bf 79 bb 03 bf 18 14 a0 3b 81 74 8f 3d
       -1.0707408 -0.51457936 0.004885208 0.07004643
000020 32 a9 e2 3d 65 24 0d 40 2a a2 13 c0 53 f1 8c c0
       0.11067428 2.2053463 -2.3067727 -4.4044585
000030 bf 9b a8 3f 66 67 00 bf c4 1c ee bf 87 f0 2e 3f
       1.317253 -0.50157773 -1.8602529 0.68335766
000040 46 e5 8d 3f b1 a1 c7 3f ac ec ee c0 23 d3 dd bf
       1.1085594 1.5596219 -7.4663906 -1.7330059
000050 fc 0b 1c c0 00 6c 2e bf 0d b1 24 3d 74 88 11 c0
       -2.4382315 -0.68133545 0.04020791 -2.2739534
000060 6d 24 7e bf ef 10 78 3f 9e 6f a9 3e 64 6d 7b 40
       -0.9927433 0.9690084 0.3309297 3.9285517
000070 e5 b3 66 3f f0 47 aa 3f 25 3a 65 3f e4 60 77 3e
       0.9011825 1.3303204 0.89541847 0.24158055
000080 56 15 1f 3f 85 b5 a2 bf 79 d2 18 bf 7e 69 0d bf
       0.6214193 -1.2711645 -0.59696156 -0.55239093
000090 7a 1c 6c c0 6b 4e 9c be 2f 4f 35 40 76 82 13 c0
       -3.689238 -0.30528578 2.832958 -2.3048377
0000a0 4c f2 86 3d 54 45 3b 3e 63 01 4d bb 10 72 33 3f
       0.06589183 0.18288165 -0.0031281344 0.7009592
0000b0 98 be a5 3c 09 42 a9 bf 2d de 42 bf 94 8a 3f c0
       0.020232484 -1.3223277 -0.76120263 -2.9928331
0000c0 aa cf 59 3f e9 cc 0e 3e f8 e9 80 be 3d 1f f3 3e
       0.85082495 0.13945355 -0.25178504 0.4748477
0000d0 f7 a8 ea be bb f8 24 c0 56 31 09 c0 4b 6e 01 bf
       -0.45832035 -2.5776813 -2.1436362 -0.5055892
0000e0 37 e7 de bf 94 2a 18 3f 58 d1 27 3e a8 5b 79 bf
       -1.7414311 0.5943997 0.16388452 -0.9740548
0000f0 d6 d7 46 be c2 6b 7c bf 8e db ce c0 5d b3 02 c0
       -0.19418272 -0.98601925 -6.464301 -2.0421975
000100 12 9b bb be 96 31 6e 3f e0 a2 87 bf c3 08 47 be
       -0.36641747 0.9304441 -1.059658 -0.19436936
000110 ec 46 7f 3f f0 4a 86 bf fe 06 1d c0 f0 13 a6 bf
       0.99717593 -1.0491619 -2.4535518 -1.2974834

encoder.0.bias f4 [8]
000000 21 92 15 c0 85 4e 0f 3f bc 00 88 3e 41 e4 81 3f
       -2.337044 0.55979186 0.2656306 1.0147783
000010 52 83 31 3f 76 b8 b2 3e 64 0e 6d bf 28 f8 ae be
       0.69341004 0.34906358 -0.92600083 -0.34173703

encoder.3.weight f4 [16, 8, 3, 3]
000000 bc 12 4d 3f 85 62 28 be 6c f1 34 3f a2 8b 51 be
       0.8010671 -0.16443832 0.7068088 -0.20463422
000010 e5 45 88 bc 0d 75 53 3e 62 cc 11 bd a3 64 9c 3f
       -0.01663489 0.2065012 -0.035595305 1.2218212
000020 6b 87 ea 3f 09 9f ce be a1 1b 24 3f eb 76 18 40
       1.8322576 -0.4035571 0.6410466 2.3822582
000030 79 99 1b bf 12 b1 0b 40 39 d5 b4 3e 4b dc 1b c0
       -0.60781056 2.1826825 0.35318926 -2.4353206
000040 83 e0 9f bf 31 12 a4 3f 93 14 52 3f 98 85 a9 3d
       -1.249039 1.2818052 0.82062644 0.08277434
000050 52 84 1d 3f 97 e8 6a bd dc 6b d6 be 0e 96 40 3d
       0.6153003 -0.05735072 -0.41879165 0.047018103
000060 bb 24 54 bf be 0b dd bf fd 0a d9 bf 7e 80 44 be
       -0.82868546 -1.7269208 -1.6956478 -0.19189641
000070 3f b2 f1 be de 32 59 3d 6f 4d bc be f8 8d 07 3f
       -0.47206303 0.053027026 -0.36777827 0.52951
000080 e2 1b 83 3f 11 e6 f2 3f b8 5d ae 3f ea f8 12 40
       1.0242884 1.8976461 1.3622351 2.2964425
000090 1b cd 09 c0 90 ae a7 bf ca 21 56 c0 a0 40 ab bf
       -2.1531436 -1.3100147 -3.3458123 -1.3379097
0000a0 e0 30 b8 bc 74 35 24 c0 ce f0 44 bf 41 e2 91 bf
       -0.022484243 -2.5657625 -0.7692994 -1.1397172
0000b0 0e b4 d7 bf f0 91 9b 3e 89 ce 32 3f 72 b0 b2 3e
       -1.6851823 0.3038478 0.698464 0.34900242
0000c0 a8 64 6e bf b9 57 dd 3e 8d c5 c5 3e 53 56 3c bf
       -0.9312234 0.4323099 0.38627282 -0.7356922
0000d0 88 a4 43 bf 96 c8 6c bf f7 00 1e 3b af dc 05 3f
       -0.7642293 -0.9249357 0.0024109462 0.5228986
0000e0 6e 93 72 3f 61 b8 b9 be 79 65 94 3d 29 f6 ac bd
       0.9475621 -0.36273482 0.07245917 -0.08445389
0000f0 f9 4d 1b bf 9c 45 20 bf f8 03 99 bf 28 97 ae 3e
       -0.6066585 -0.62606215 -1.1954336 0.34099698
000100 29 30 95 bf d7 51 b5 bf b3 05 b3 bf 62 62 b1 bf
       -1.1655322 -1.41656 -1.3986114 -1.3858149
000110 11 25 f8 bf da d1 ef bf 8a bc 17 c0 46 44 3b c0
       -1.9386312 -1.8735917 -2.3708825 -2.926042
000120 d8 be e2 3f b4 93 a3 3f d0 4e 8c 3f c7 91 a0 bf
       1.7714491 1.277945 1.0961552 -1.2544488
000130 09 3a f9 bf 13 2f 62 3e 44 44 2a c0 ff 69 fd bf
       -1.9470836 0.2208827 -2.6604166 -1.9797972
000140 4a 05 4e 3f 91 b3 d3 3e 34 0e e3 3e 7f 94 6a 3f
       0.8047682 0.41347936 0.44346774 0.9163284
000150 d5 c4 e3 3f 9e a8 a9 3f 28 41 ad 3f a5 b6 0c 3d
       1.7794443 1.3254583 1.3535509 0.03435387
000160 71 87 cc bf 84 7d 06 3e 4d 9c 9f be 2e 73 83 be
       -1.5978833 0.13133818 -0.31173936 -0.25673813
000170 86 43 a1 3f 26 e5 1f 40 5c e6 bf 3f 0b 4c 08 40
       1.2598732 2.498361 1.4992175 2.1296413
000180 09 dc d5 3d 4b 9a 05 3f 82 d9 81 3f af 6e d5 3f
       0.10442359 0.5218856 1.0144503 1.6674403
000190 5e 2d c5 3f 3f fc 8c 3f 31 b8 1a bf ab d8 9b bf
       1.540447 1.1014479 -0.60437304 -1.2175497
0001a0 6b 62 60 bf 48 bc 6b be 0f 0c b9 3e ee c9 b8 3f
       -0.87650174 -0.23021042 0.36142012 1.4436624
0001b0 6a ce cb 3f 7f 6f ad 3f 57 7a 77 3c a1 87 29 be
       1.5922368 1.3549651 0.015104852 -0.16555645
0001c0 a6 d8 6f 3f c7 e7 90 3f cc c6 f6 bc 7a 83 ff be
       0.93689954 1.1320733 -0.03012409 -0.49904996
0001d0 5e 48 09 bf d1 fa b0 3e d4 64 5a 3c e5 d1 5d 3f
       -0.5362605 0.34566358 0.013329703 0.866484
0001e0 52 33 13 40 de 4a 45 3f 6a ff e3 3e cc d8 a6 3f
       2.3000073 0.77067363 0.44530803 1.3034911
0001f0 86 28 af 3e 36 f8 3e 3f 56 0a d4 3d 2f 62 bc 3e
       0.34210604 0.7459749 0.10353534 0.36793658
000200 96 55 82 3f 3d da c3 3e 4f 05 08 3f b6 c2 b9 3e
       1.0182369 0.3825244 0.531331 0.36281365
000210 4d 1e 98 bc 7c 19 37 3e 1e 02 49 3f 82 25 4e 3e
       -0.018569136 0.17880815 0.78518856 0.20131496
000220 a6 05 06 3f f9 48 f7 3e 18 7a 13 3e e2 ea 76 3f
       0.5235237 0.4829786 0.14402044 0.9645215
000230 96 cb 97 3f 38 c5 e4 be 06 33 c3 3b d9 96 19 3f
       1.1859004 -0.44681716 0.00595701 0.599958
000240 87 d5 f9 3e 11 47 db be 54 6a a8 bf 3c de 5c bf
       0.4879572 -0.42827657 -1.3157449 -0.862766
000250 89 da 26 c0 9e 7b a8 bf fe 41 4d be 9e d7 9c bf
       -2.6070883 -1.3162725 -0.20044705 -1.2253301
000260 02 22 aa be bd dd c7 3f 7d 62 fb 3d f4 fd 1f bf
       -0.3322907 1.5614544 0.122746445 -0.62496877
000270 56 52 58 40 43 1d f9 3f 63 41 a2 bf 93 76 75 bd
       3.3800254 1.9462055 -1.2676204 -0.059927534
000280 22 02 8b 3f a3 8f 1e 3f f7 ec 45 bf 0a eb 42 be
       1.0860026 0.6193792 -0.77314705 -0.19034973
000290 f2 36 14 c0 f7 ce 50 3f eb fe 57 3c 16 0e b1 bf
       -2.3158536 0.81565803 0.013183336 -1.3832424
0002a0 5d 58 e9 3f 24 00 76 3f 4b fa 90 bf 7c e4 a1 3e
       1.8230091 0.96093965 -1.1326383 0.31619632
0002b0 a0 26 d8 3f fc 98 9e 3f 0a 01 8f 3e e3 9e 20 be
       1.6886787 1.2390437 0.2793048 -0.1568561
0002c0 73 c7 07 3f 74 cd de 3f cd a5 8a be d0 9d 55 bf
       0.5303871 1.7406449 -0.2707962 -0.8344393
0002d0 0e 6e e0 bf c3 e9 69 3e ff 76 1e 40 71 f7 b5 bf
       -1.7533586 0.2284308 2.476013 -1.4216138
0002e0 94 20 b9 3f b5 39 d3 3f 90 e2 32 be c9 17 43 3e
       1.4463067 1.6501986 -0.17469239 0.19052042
0002f0 12 d3 c3 3e ef 7f 8b be 1f d6 b6 bf 01 00 73 c0
       0.3824697 -0.27246043 -1.4284095 -3.7968752
000300 f2 e6 be be 9b b4 ef bf d5 a9 2e c0 6d 49 f9 be
       -0.37285572 -1.8726991 -2.7291157 -0.48688832
000310 1f e6 96 be e3 00 8e be 25 78 89 bf 48 0c cf bf
       -0.29472443 -0.27735052 -1.073979 -1.6175623
000320 03 5c f0 c0 5f 35 62 bf 09 32 42 bf a3 8e 58 c0
       -7.511232 -0.8836269 -0.758576 -3.3837059
000330 1d 6b c8 bf aa 96 3b bf 11 85 76 bf f5 d7 e6 be
       -1.5657688 -0.7327677 -0.96296793 -0.45086637
000340 b3 c8 c0 3e 3a e4 97 bf e2 07 c5 bf f9 f6 1a bf
       0.3765312 -1.1866524 -1.5393031 -0.605331
000350 65 79 36 bf bc 95 f9 bf 9c 62 f8 bf dc d0 18 bf
       -0.71278983 -1.949882 -1.9405093 -0.59693694
000360 20 fb 1f c0 2b f6 81 bf 08 02 d9 bf 13 86 09 c0
       -2.4997025 -1.015325 -1.6953745 -2.1488082
000370 ea 36 11 c0 40 ce 21 c0 de 02 55 bf b9 69 08 bf
       -2.2689767 -2.5282135 -0.832075 -0.5328632
000380 e2 e4 5c bf 46 ac 53 bf 2c ce 57 bf 35 5b 5a c0
       -0.8628675 -0.82684743 -0.8429897 -3.4118168
000390 1f 23 9b 3e fe 01 50 bf 06 7a 56 c0 13 a4 f3 be
       0.30300233 -0.8125304 -3.3511977 -0.47586116
0003a0 21 c5 d1 bf db e8 bc c0 6a 55 dc 3e 2d d8 23 c0
       -1.6388284 -5.9034247 0.43033916 -2.5600693
0003b0 22 5f 6b c0 05 85 d3 3e 03 32 a9 bf 0e 08 86 c0
       -3.6776814 0.41312423 -1.3218387 -4.188483
0003c0 d9 7b 8d 3e 34 8c f2 bf 18 82 87 c0 41 38 76 bf
       0.2763355 -1.8949037 -4.2346306 -0.96179587
0003d0 4a 51 19 3f 12 13 07 3f e7 2a e9 bf 87 7d df be
       0.5988966 0.52763474 -1.8216218 -0.43650457
0003e0 b0 ce a7 bc 6e e9 5c bf b6 e8 0a 3f b1 3a 6f 3f
       -0.020484298 -0.86293685 0.5426134 0.9344893
0003f0 78 72 e9 3f b7 d7 e7 3f c9 da 6b 40 e3 d9 02 40
       1.8238058 1.8112706 3.6852286 2.0445487

encoder.3.bias f4 [16]
000000 57 96 10 be 39 68 6c 3e 9f ec 7a be b3 51 51 be
       -0.1411985 0.23086633 -0.24504326 -0.20441322
000010 84 eb 05 3e 1c cc ac 3d 7c 86 5f 3d c8 b0 15 bc
       0.13078123 0.08437368 0.054571614 -0.009136386
000020 e1 80 56 bd 64 87 7d 3e 9d ca 30 bd 07 5c 9c bd
       -0.052369002 0.24758679 -0.043161977 -0.0763474
000030 01 3c cb bd 90 6b f8 3d dd 4f b5 bd 13 49 72 bd
       -0.09923554 0.12129891 -0.08853123 -0.05915172

encoder.6.weight f4 [32, 16, 3, 3]
000000 72 60 6d bf 0d 68 14 c0 84 09 99 c0 0f af db bf
       -0.9272529 -2.3188508 -4.7824116 -1.7162799
000010 2a 9f dd bf 40 d4 3a bf 3f a3 d7 3b d7 9e 9b 3e
       -1.7314198 -0.7298012 0.0065807397 0.30394623
000020 fb c3 65 bf b0 83 e6 bd 61 df 58 be 84 c1 1e c0
       -0.8975217 -0.11255586 -0.21178962 -2.4805613
000030 fb 23 d0 be 35 94 39 bf 05 91 7e bf b4 25 53 bf
       -0.4065245 -0.7249177 -0.9944003 -0.82479405
000040 2d 44 95 bf 68 5c 31 3d 80 c2 61 3f 5c dd 3c 40
       -1.1661431 0.043301016 0.8818741 2.9510107
000050 bc e7 ed 3f 9f b7 c6 3e 98 65 48 3f ca 63 87 bf
       1.8586345 0.38811967 0.7828002 -1.0577328
000060 df 6d 0e 3f 52 d6 b3 3f 76 e6 fc bf 14 59 87 3e
       0.556364 1.404978 -1.9757831 0.2643515
000070 36 c8 99 3f 62 88 16 be ef e0 00 bf be fe df 3d
       1.2014225 -0.14700463 -0.5034322 0.1093726
000080 fc e8 3c bf 11 73 ff bd 37 d1 5e 3f bf 16 eb 3e
       -0.73793006 -0.12473119 0.87037987 0.4591579
000090 89 0e e9 be 65 98 c6 3e a9 2a a5 3d e2 65 58 3f
       -0.45518902 0.38788143 0.080647774 0.8453046
0000a0 53 02 8a bf ad 42 e2 3e 0f 4a ea bf 99 ba 27 c0
       -1.0781959 0.44191495 -1.8303851 -2.620764
0000b0 c5 8f 76 bf bd 97 ea 3e 27 2d e2 be 21 1d af bb
       -0.96313125 0.45818892 -0.44175074 -0.0053440486
0000c0 2d 9b 59 bf 9f ef 0f bf b3 70 34 3f cc 97 98 bf
       -0.85002404 -0.5622501 0.70484465 -1.1921325
0000d0 71 21 eb bf 20 0f fe 3f 1a bc a7 bd 7c 0e 94 3d
       -1.836958 1.9848366 -0.081901744 0.07229325
0000e0 a9 91 19 40 46 23 be 3f c9 98 62 3e f4 14 1d 3f
       2.3995154 1.4854515 0.22128595 0.61360097
0000f0 16 42 20 40 6f de 6e 3f 98 50 b3 3e 1b e4 cb 3f
       2.5040336 0.93308157 0.35022426 1.5928987
000100 33 d6 20 40 fd 7f 07 40 96 64 d2 3f 8c fb 9a bf
       2.5130737 2.1171868 1.6436946 -1.2108016
000110 9a 50 d1 bf f0 f5 4a 40 ec fc 3d bf 36 38 8f bf
       -1.6352723 3.1712608 -0.74214053 -1.1189029
000120 98 1b c2 bf b1 27 fe bf 74 45 82 c0 33 a9 d8 3f
       -1.5164671 -1.9855863 -4.070978 1.6926636
000130 0c 1c 30 c0 1c 07 87 c0 97 dc 63 3e b5 c7 44 bd
       -2.7517118 -4.219618 0.22252117 -0.048042018
000140 0e 62 0d c0 82 5a d0 3f a4 8c e9 3e 2d b8 1f 40
       -2.2091098 1.6277621 0.45615113 2.4956162
000150 77 28 9d be bd af 0a be ec 61 2d 3f f4 7b 24 40
       -0.30694935 -0.13543601 0.6772754 2.5700655
000160 0a 93 31 40 1a 0f 0e 40 a0 a2 a2 3c 39 cf fa 3f
       2.7745996 2.2196717 0.019852936 1.9594489
000170 e3 97 b8 3f ef 91 06 40 5e ab b3 3e 62 70 ba 3f
       1.4421352 2.102657 0.3509168 1.4565547
000180 4c 09 53 40 50 0d 0b 40 f7 93 9f 3f c0 a9 26 3d
       3.2974424 2.1726875 1.246703 0.04068923
000190 e8 b6 c7 3e 80 fd 00 40 0f 6c 34 bd 02 61 30 3d
       0.39006734 2.0154724 -0.044048365 0.043061264
0001a0 47 d1 fa bf af 13 32 be 34 69 aa bf 15 f4 14 bf
       -1.9595116 -0.17390321 -1.3313355 -0.5818494
0001b0 0c fc 7e 40 08 3c 2b bf 12 2a c6 3f 73 5f 4b 3f
       3.9841337 -0.66888475 1.5481589 0.7944252
0001c0 eb ca f4 3e 25 6e 97 3f 5c 13 b1 3f a5 01 63 3f
       0.47811064 1.1830488 1.3834033 0.88674384
0001d0 95 d4 89 3f 97 33 9c be 6f c1 9c c0 5f 0d b1 c0
       1.0768 -0.3050811 -4.8986125 -5.532882
0001e0 6a ad 87 3e 85 27 ee bf 19 f1 5b c0 1b 24 cf bf
       0.26499492 -1.860581 -3.4365904 -1.6182894
0001f0 e2 f0 01 3f cb 3b 0c 3f c8 d8 a8 3f fd 1d 5c 3f
       0.50758183 0.54778737 1.3191156 0.8598326
000200 3f ae 16 40 b9 54 e3 bf c9 0e 3b bf 2c c6 aa bf
       2.3543851 -1.776023 -0.73069435 -1.3341727
000210 f6 ae 54 bf cf 96 80 bf 2e 64 0e bf ef 19 35 3f
       -0.8307947 -1.0046023 -0.5562161 0.70742697
000220 e2 2b 55 bf 75 ae 9f 3f 03 df 71 bf 7b eb f7 3d
       -0.83270085 1.2475115 -0.94480914 0.12105461
000230 35 86 9f bd 74 54 da 3f fa 74 06 40 40 4e 05 40
       -0.0778927 1.7057023 2.1008897 2.082901
000240 7e 17 cb bf b7 13 94 bf c5 54 53 40 a7 67 fa 3e
       -1.5866544 -1.1568516 3.302049 0.48907205
000250 ae 66 da be 73 15 88 3e c9 d3 8c 3f 07 95 99 bf
       -0.42656463 0.26578864 1.1002132 -1.1998605
000260 56 81 8c 3d 46 a0 97 bf 09 04 c1 3f d3 cb 9d 3f
       0.06860606 -1.1845787 1.5079356 1.2327827
000270 c0 ac 55 3e 3f ad 99 be e6 5c 14 bf c0 15 f1 bf
       0.2086668 -0.3001499 -0.5795425 -1.8834763
000280 6f 2c 96 bd 11 85 c2 3e 99 87 76 3b 97 ec a8 bf
       -0.07332694 0.37992147 0.0037617444 -1.3197201
000290 90 13 b5 bf 51 98 79 c0 f4 b1 19 bf d0 09 59 bf
       -1.4146595 -3.8999217 -0.6003716 -0.847806
0002a0 59 dd 40 c0 0c f6 83 bf 6f 2c d2 be 91 a3 92 be
       -3.01351 -1.0309463 -0.41049525 -0.28640416
0002b0 69 1c d4 bf c1 65 02 bf 76 db 87 c0 0c 45 b1 3d
       -1.657117 -0.50936514 -4.2455397 0.08655748
0002c0 30 7c 97 3f f7 f0 bc 3d 0a de 1e be b5 58 6c 3f
       1.1834774 0.09225648 -0.15514389 0.92322856
0002d0 64 cd c9 bf 8f f3 31 bf 14 66 12 40 11 2d 1d c0
       -1.5765805 -0.69512266 2.2874804 -2.4558756
0002e0 a7 04 d0 3f 1b 4d 84 3f 70 ea 32 3f d0 32 1a 40
       1.625142 1.0336031 0.69888973 2.4093513
0002f0 d1 15 07 40 61 4b df 3f 6b 8c 83 3f 5e 9a 34 3f
       2.1107066 1.7444879 1.0277227 0.70548046
000300 3f 29 e0 3f 40 c8 51 3f 89 4e f8 3f f6 21 89 3f
       1.7512587 0.8194618 1.9398967 1.0713489
000310 84 00 86 3f 4e 14 79 be 30 15 3f 40 fd 45 31 bf
       1.0468907 -0.24324152 2.9856682 -0.6924742
000320 70 48 24 bf 53 04 1f 40 cb 22 7f 3e ca be b1 bf
       -0.6417303 2.484639 0.24915616 -1.3886349
000330 65 fe 75 bd b9 30 f3 bf 67 de 28 c0 bb ab fd 3f
       -0.060057063 -1.8999244 -2.6385744 1.9818033
000340 f2 b3 1f bf b6 60 0d c0 51 ea 80 3d 18 e8 31 bf
       -0.6238395 -2.2090278 0.06294692 -0.6949477
000350 f8 f0 6f bf bb 9e 52 bf 4a 9e e3 bf 95 29 02 c0
       -0.93727064 -0.82273453 -1.7782681 -2.033788
000360 dd 3e 11 c0 c8 bc b6 bf 79 d6 53 3f 20 56 cd bf
       -2.2694619 -1.4276361 0.82749134 -1.6041908
000370 d3 42 10 40 e1 2f 35 40 ca e5 cb 3f a6 26 8a 3f
       2.2540786 2.8310473 1.5929501 1.0793045
000380 40 c1 32 40 c2 2a c2 3f ca 37 35 3e 7e 5f 25 c0
       2.793045 1.5169299 0.17697063 -2.5839534
000390 5a 60 75 3f c6 a4 1b bf c4 cd 04 c0 d6 1d d6 3e
       0.95850146 -0.607983 -2.075059 0.41819638
0003a0 a7 a8 62 c0 ad 3d fc bf 02 f4 ce 3e 2d f5 42 bf
       -3.5415437 -1.9706322 0.40420538 -0.7615536
0003b0 42 dc 28 c0 a4 5d 96 3e f6 0d 98 bf 33 fe ac bf
       -2.6384435 0.29368317 -1.187926 -1.3515075
0003c0 aa c6 c7 bf 66 73 01 c0 78 fc 20 c0 47 85 31 40
       -1.5607502 -2.0226684 -2.5154095 2.7737596
0003d0 c1 66 35 40 48 2e bd bf 17 e1 e4 3f 00 0d 54 40
       2.8343966 -1.4779749 1.7881192 3.3132935
0003e0 a8 de 28 c0 7f 14 a3 3e 35 29 ba bf 9d 14 36 c0
       -2.6385899 0.31851575 -1.4543825 -2.8450081
0003f0 45 06 3e bf fe 98 80 c0 d4 32 be bf f6 62 b1 bd
       -0.74228317 -4.018676 -1.4859262 -0.086614534

encoder.6.bias f4 [32]
000000 b7 74 ed 3c 8f 66 9a bc 1c 41 3c bd 96 4e 0b 3d
       0.028986318 -0.018847732 -0.04596053 0.034010492
000010 60 a2 72 3d b2 5d d1 3c 91 ca ce 3d 2d 73 38 3d
       0.059236884 0.025557373 0.1009723 0.045031715
000020 d1 b8 45 bd fa ae 1a 3d e7 3e 8a 3c d6 95 d8 bd
       -0.048271958 0.037764527 0.016875697 -0.10575454
000030 d5 4a bc 3c a2 76 33 3a 0a 73 25 3d b0 59 ca 3d
       0.022984901 0.0006845986 0.040392913 0.09880388
000040 ef 97 91 3d 8f 3a a4 3d 34 4a 67 ba a1 0f 2a 3e
       0.07109057 0.08018982 -0.0008823008 0.16607524
000050 88 39 f6 3a 9f 0a 74 3d 81 72 42 3c be b6 a6 bd
       0.0018785456 0.05958044 0.01186812 -0.08140324
000060 78 e8 b2 bd fe f1 de 3c e4 f9 0f be 9f ef 24 bc
       -0.08735746 0.027215 -0.1406017 -0.010066896
000070 8a 6d 6f 3c a7 17 1d bd fa 0e c1 3c 85 b7 7b bd
       0.0146135185 -0.038352635 0.023566712 -0.061454315

bottle_neck.0.conv_block.1.weight f4 [32, 32, 3, 3]
000000 54 b7 c1 be f0 85 14 bf 0a c7 b7 3f 8b 30 c6 bf
       -0.3783518 -0.5801687 1.4357617 -1.5483564
000010 5c f3 db bf a8 31 b0 3e 4f c4 90 3f 1d f6 1e 3f
       -1.7183642 0.34412885 1.1309909 0.6209429
000020 07 bf a6 3f ea 29 04 3f 1d b4 ac be d2 1a 01 3f
       1.3027047 0.51626456 -0.33731166 0.5043155
000030 c3 da 9a bf 63 6f d6 bf 53 e4 03 c0 91 e6 79 3e
       -1.2098011 -1.6752743 -2.0608108 0.2440436
000040 38 e7 c8 bf 63 a2 34 40 9d 32 af 3f 2b ca 14 3f
       -1.5695562 2.8224113 1.3687321 0.58120984
000050 b1 55 b4 bd 72 b5 e4 bd 58 22 71 bf f0 0f 81 3e
       -0.08805407 -0.111674204 -0.9419303 0.25207472
000060 f0 2a 47 be bc 58 f0 bf 58 de 1f c0 7c f7 b1 bf
       -0.19449973 -1.877708 -2.4979458 -1.3903651
000070 54 b9 d0 bf 5b fb 03 c0 b4 40 f1 3e 8f 17 88 3f
       -1.6306558 -2.0622165 0.47119677 1.063219
000080 ef 20 ee 3f 65 ec 15 3f 64 ba ba 3e 8f cd 0a c0
       1.86038 0.58563834 0.3647033 -2.1687963
000090 a4 90 50 bf 95 5d de bd 04 93 30 3f 2d df e1 be
       -0.81470704 -0.10857693 0.6897433 -0.44115582
0000a0 ac 11 ae be 9a 27 92 be 72 b4 fe 3c cb e0 94 be
       -0.33997858 -0.2854584 0.031091902 -0.29077753
0000b0 15 d1 e3 3e 5b 37 8e bc 4b 8e f6 3f 55 64 66 3f
       0.44495454 -0.01736038 1.9262174 0.89996845
0000c0 a9 39 39 3f ea 4a 87 3d 44 73 5e 3f 12 b9 e3 bf
       0.7235361 0.066060856 0.8689463 -1.7790854
0000d0 b5 91 62 3c 10 11 15 c0 c2 0f 5d 3e 65 c6 9a bf
       0.013828685 -2.3291664 0.21588042 -1.2091795
0000e0 20 5e fb be 7b 33 10 40 86 0e 09 40 00 30 67 40
       -0.4909525 2.253142 2.1415114 3.6123047
0000f0 f2 b0 b8 bf 83 6e d9 be 64 6c 55 3e 0d ec c6 3d
       -1.4429 -0.42467126 0.20842129 0.09712992
000100 63 72 8c 3f 86 3c ff 3e 07 de c4 3f 9b 08 1b 40
       1.0972408 0.49850863 1.5380257 2.4224002
000110 6e e1 33 40 4c 9f e5 3e 92 56 5c be 67 84 59 3e
       2.8106341 0.44848096 -0.21517399 0.21241914
000120 a0 6a d6 bf a6 d8 80 3f 4a 34 96 3e c4 80 72 3f
       -1.6751289 1.0066116 0.29336768 0.9472773
000130 94 99 07 3f 97 67 d8 3f 83 34 cc 3f fd fd 29 3e
       0.52968717 1.6906613 1.5953525 0.16600795
000140 b0 05 3d bf a0 f5 39 3f 70 8e 6d be a3 61 b0 3f
       -0.73836803 0.7264042 -0.23198867 1.3779796
000150 4e 28 5f be d4 80 26 c0 3b 9b 15 c0 cf 9d 91 3b
       -0.21792719 -2.601613 -2.3375995 0.004443861
000160 4c ff 02 c0 0c ae b0 be 29 d0 72 3f ea c0 38 3e
       -2.046832 -0.34507787 0.9484888 0.18042341
000170 04 6f bb bf ab 57 20 3f ea 9d c9 bf 2b 17 9e bf
       -1.4643254 0.6263377 -1.5751317 -1.235082
000180 7b bc 51 3f 86 c3 82 3f 7d d7 60 3e 10 67 c3 3e
       0.81928223 1.0215919 0.21957202 0.38164568
000190 04 fb 85 bf 8a 6f 12 3f 93 c7 57 be 09 92 3b 3f
       -1.0467229 0.57201445 -0.21072225 0.73269707
0001a0 cd 62 54 3f d1 16 af 3f cb 6a 8b bf ac a5 84 be
       0.8296326 1.3678838 -1.0891966 -0.25907648
0001b0 26 cf ae 3e 15 19 33 3f ee c6 a7 3f 89 f7 9e bf
       0.34142417 0.6996015 1.3107584 -1.2419292
0001c0 f7 7a a2 bf ab fe d6 be 4a 47 6c 3f ec 94 1c bf
       -1.2693776 -0.4199117 0.9229628 -0.61164737
0001d0 a0 38 cf be 07 fb 1e 3f 6c 51 39 be b4 48 9a 3f
       -0.4047289 0.6210179 -0.18097466 1.2053437
0001e0 5e c9 51 40 b5 08 c8 3f 73 c3 ed 3d 8b f7 70 3e
       3.2779155 1.5627657 0.116095446 0.2353193
0001f0 91 5c bf 3e 4d 10 87 bf 29 ce 04 bf 73 88 fd be
       0.3737531 -1.055185 -0.51877075 -0.49518165
000200 29 d5 b1 bf fd ce fe 3f 69 1e 21 40 5b cd 43 3f
       -1.3893176 1.9906918 2.517481 0.7648522
000210 00 b4 22 bf 75 28 af 3e 9f f9 99 bf c8 87 8b bf
       -0.6355591 0.34210554 -1.2029303 -1.0900812
000220 d2 a7 d1 bd f4 a1 16 bf 98 a4 fc 3d c6 f0 0b 3f
       -0.10237087 -0.5884087 0.12336081 0.54664266
000230 ab 35 ed 3f 37 43 99 3f 2c 1d ea be f4 85 64 3f
       1.8532003 1.1973637 -0.4572538 0.89266896
000240 e1 71 b8 bf 42 46 ff bf 31 5b 00 c0 71 b5 52 bf
       -1.4409753 -1.9943316 -2.005566 -0.8230811
000250 df 65 2f c0 26 4b ca bf 7b b3 a0 bf 87 2d 61 3e
       -2.7405927 -1.5804183 -1.2554773 0.21990024
000260 e4 f7 a1 bf 56 77 80 bf d7 b7 55 bf 15 5b 6d bf
       -1.2653775 -1.0036418 -0.8348364 -0.92717105
000270 12 3a 4b 3f d7 76 c8 be 47 2a dc bd d2 ef 2c 3f
       0.79385483 -0.39153168 -0.10750251 0.67553437
000280 db 80 cc bf 1e 30 02 c0 cf 7a 67 bf 63 27 e1 bd
       -1.5976824 -2.0341868 -0.90421766 -0.109938405
000290 b9 a2 8f be fc 56 93 3e ce f9 16 3e e1 0e 86 3e
       -0.28053835 0.287773 0.1474373 0.26183227
0002a0 3f bc 83 3f 9d 31 e4 3f 4a 30 ed be 68 c5 ed 3f
       1.0291823 1.7827641 -0.46325904 1.8575869
0002b0 49 37 e7 3e 6e c6 9d be d9 3e 9c 3f fe af 18 40
       0.45159367 -0.30815452 1.220668 2.3857417
0002c0 af 83 80 40 8e bb 62 3f 33 ed 26 bf 81 11 46 c0
       4.0160747 0.88567436 -0.6520569 -3.0948184
0002d0 58 e6 2d 40 6b 66 04 3e 23 07 44 bf 2d 56 7a 3f
       2.717184 0.12929694 -0.7657339 0.97787744
0002e0 bf af b5 3d 72 26 ad be 25 1d 21 40 f6 df f6 be
       0.088714115 -0.33818394 2.5174038 -0.48217744
0002f0 ab 59 1a c0 e7 a7 2d bf d6 87 50 3f f8 d8 73 be
       -2.411723 -0.67834324 0.8145727 -0.23813236
000300 1c e1 1c 3f 50 b5 65 3e 2c c1 89 3e d2 c9 77 3f
       0.6128099 0.22432446 0.2690519 0.9679233
000310 0a f4 c3 bf 1e 73 45 3e 87 8d 63 bf 5b ab 9b 3f
       -1.530885 0.19282195 -0.8888783 1.2161669
000320 4b 4a 03 40 2c 4b 29 3e 26 91 5d 40 82 67 80 3e
       2.0514095 0.16532582 3.4619842 0.2507897
000330 10 66 80 be 10 ca a2 3d f6 c3 00 40 86 db 9e 3f
       -0.25077868 0.079486966 2.0119605 1.2410743
000340 9f 18 29 bf 6c 0b 78 3f 19 90 16 3d 9a 20 6d bf
       -0.66053194 0.9689243 0.036758516 -0.9262787
000350 f2 6f 17 bf d3 77 d0 3e ce a9 86 bf 92 54 9d bf
       -0.5915519 0.4071642 -1.052057 -1.2291434
000360 e6 d6 d0 3d 41 ba 80 bf 6a 92 b5 3e 9c b3 67 bf
       0.101972386 -1.005684 0.35463268 -0.9050844
000370 47 6e 03 c0 c1 28 46 c0 93 fa 9d bf 6a b9 89 bf
       -2.0536058 -3.0962374 -1.2342094 -1.0759709
000380 6b 66 82 bf dc 3f 01 3d ef 2a ea bf 39 3b 87 bf
       -1.0187505 0.03155504 -1.8294352 -1.0564948
000390 b3 f6 44 40 9c 56 3e 3f c9 01 d0 3f fa 47 92 3f
       3.0775573 0.74350905 1.6250545 1.1428216
0003a0 62 50 25 c0 b9 0a 39 40 d2 ed 5c bf 4f c5 60 3e
       -2.5830312 2.8912795 -0.86300385 0.21950267
0003b0 59 3f d9 be d1 cb af 3f f1 e5 83 bf 62 81 8d 3f
       -0.42431143 1.3734075 -1.0304548 1.105511
0003c0 5e 5e 39 40 82 fd b4 3e d2 3a 3b 3f 1c 9a 09 40
       2.8963847 0.3534966 0.7313663 2.150031
0003d0 cd ce 84 3f 32 e5 2a 40 7e b6 7a bf 39 3e 86 3e
       1.037561 2.670239 -0.9793471 0.26219347
0003e0 da ae a8 be 14 a8 06 3f 4c 91 ac bc cb 4b 21 40
       -0.329459 0.52600217 -0.021065377 2.520251
0003f0 d7 2d 28 3f e6 0f b8 3f cb 85 06 40 fe 00 ad 3f
       0.65694946 1.4379852 2.101916 1.3515928

bottle_neck.0.conv_block.2.weight f4 [32]
000000 18 64 3b 40 94 68 bb 3d 6f 6d 9c 40 4b 5d 5b 3f
       2.9279842 0.09150806 4.8883586 0.8568923
000010 a6 4f 3e 40 7d 39 2b 40 d3 be 03 40 f5 d7 f0 3e
       2.9736114 2.6753838 2.058522 0.47039762
000020 cd cb 18 40 15 19 87 be f3 77 44 c0 36 4e 75 be
       2.387439 -0.26386324 -3.0698211 -0.23955616
000030 cd 7b a2 be c3 af 8b be e1 29 30 40 ca 4c b6 3f
       -0.31735078 -0.27282533 2.752556 1.4242184
000040 bc e7 1b 40 04 db f1 3f 7f c2 93 be be 72 3e 40
       2.436019 1.8894963 -0.28859326 2.9757533
000050 df 4a ef 3c a7 2a 46 40 32 59 3f 40 e3 93 24 c0
       0.029210506 3.0963533 2.989819 -2.5715263
000060 7a 85 2b 40 db 17 6e 40 75 38 6e 40 8d fd 84 3e
       2.6800218 3.720206 3.7221959 0.25974694
000070 f6 84 c2 3e 6e ad 01 40 c7 a8 2c 40 7c b6 1f 40
       0.37992066 2.0262103 2.6978014 2.495513

bottle_neck.0.conv_block.2.bias f4 [32]
000000 38 60 1d 3f f5 9c 36 bf ba 82 d1 3e a9 74 58 c0
       0.61474943 -0.7133325 0.4092005 -3.3821204
000010 42 1a 55 bf 91 b2 f7 bf 0f fb 17 be 7c 59 dc bf
       -0.8324319 -1.9351369 -0.14841865 -1.7214808
000020 af ea 33 bf 7f 80 27 c0 d6 a6 b1 be 7e 73 9b bf
       -0.70279974 -2.6172178 -0.34697598 -1.214462
000030 c3 22 89 bf 8a 14 bc bf b7 38 25 3f 65 24 a4 bf
       -1.0713733 -1.4693768 0.64539665 -1.2823607
000040 5d 99 f4 be 03 69 46 c0 b4 31 af bf 11 a8 3b bf
       -0.47773257 -3.1001594 -1.3687043 -0.73303324
000050 da 49 6e bf 30 9a e5 bf 96 74 dd bf d5 79 4b c0
       -0.9308144 -1.7937679 -1.7301204 -3.179311
000060 40 db b9 bf 14 ee 59 c0 ba 9c 8d be 09 f6 c0 bf
       -1.4520035 -3.4051561 -0.27658635 -1.5075084
000070 af 78 3b c0 d6 d1 2d be 08 11 4e c0 51 34 d0 bf
       -2.929241 -0.16974577 -3.2197895 -1.6265966

bottle_neck.0.conv_block.2.running_mean f4 [32]
000000 45 e5 38 41 69 dd e8 c0 ae 4f 1a c1 05 ab ba 41
       11.555974 -7.2770276 -9.644453 23.333506
000010 0e 5c 05 c2 cf 9b 52 c2 bd 53 0f c1 ae d7 95 c1
       -33.339897 -52.652157 -8.957944 -18.730312
000020 0d 53 ae 41 16 25 88 41 68 c5 06 40 1d ff b8 c0
       21.790552 17.018108 2.1057987 -5.7811418
000030 0e ac 51 41 45 b0 89 3f b9 4c 76 41 05 2d 81 41
       13.104506 1.0756918 15.393731 16.146982
000040 84 c2 e7 c0 81 0a e7 41 1c c3 3f c1 24 fc 05 c2
       -7.2424946 28.880129 -11.985134 -33.49623
000050 c1 cd 37 41 ad 4f 14 c2 03 c1 25 c2 83 20 10 c1
       11.487733 -37.07781 -41.438488 -9.007937
000060 47 82 6c c0 93 ac 3d 42 a0 4a 2d c0 07 03 2a 41
       -3.6954515 47.41853 -2.7076797 10.625739
000070 09 9b 06 42 9d d5 0d c1 fe 53 04 c2 20 a5 d2 c1
       33.6514 -8.864652 -33.082024 -26.330627

bottle_neck.0.conv_block.2.running_var f4 [32]
000000 7b 67 8f 43 59 3e 1b 42 52 2c a9 45 a5 27 ac 44
       286.80844 38.810886 5413.54 1377.2389
000010 e1 2d 0b 44 d5 4a e7 44 51 64 66 44 90 09 9c 43
       556.71686 1850.3385 921.56744 312.0747
000020 54 48 0c 44 f3 e7 25 44 7b 81 8f 43 30 e6 bb 42
       561.1301 663.6242 287.01157 93.949585
000030 5a 82 06 43 fc 55 e3 42 d9 08 18 44 f8 9e bc 44
       134.50919 113.66794 608.13824 1508.9678
000040 2e c4 1b 45 f0 a2 1d 45 b3 3c a8 42 84 5b a1 44
       2492.2612 2522.1836 84.11855 1290.8599
000050 d6 98 01 43 50 00 35 44 bb ac 59 44 58 4d 8c 43
       129.59702 724.0049 870.6989 280.60425
000060 a4 c0 49 45 82 8a 13 44 99 39 18 45 1c bd 59 43
       3228.04 590.1642 2435.5999 217.73871
000070 b5 ee e4 44 a8 07 93 44 5d bb b0 44 b1 32 84 44
       1831.4596 1176.2393 1413.8551 1057.5841

bottle_neck.0.conv_block.5.weight f4 [32, 32, 3, 3]
000000 6a 29 60 bf 8c 80 40 3f 9c 02 d6 bf 49 5c a3 be
       -0.8756319 0.75196147 -1.6719546 -0.31906345
000010 93 7a ca 3f 05 f7 03 40 9c 44 d9 bf e8 d5 45 3f
       1.5818657 2.0619519 -1.6974063 0.7727952
000020 90 5f 85 3e 83 01 a1 3e ec 03 fd be 06 05 c2 3e
       0.2604947 0.31446466 -0.49417055 0.37894458
000030 91 d3 3a be 0c be 41 3f 0b 01 43 bf 71 6a 0c 3e
       -0.18244769 0.75680614 -0.76173466 0.13712479
000040 3c 81 03 3d 2d b8 d4 3e 1c 15 db 40 e8 64 89 40
       0.03210567 0.41546765 6.846327 4.2935677
000050 c7 a6 52 40 39 ca ff 3f 07 0a 8e 3f 0c ac 63 3f
       3.2914293 1.9983588 1.109681 0.889344
000060 8c e9 8e 3f d2 f6 34 3e d9 e8 f7 3e 88 2b 15 3f
       1.1165023 0.1767228 0.48419836 0.5826955
000070 2d 70 e3 bf 86 e2 25 40 97 ea 10 be da fa bf bf
       -1.7768608 2.591951 -0.14151989 -1.4998429
000080 ec d4 c0 3f 21 11 ac 3f 8f 3c 05 3f 55 6f 94 bf
       1.5064979 1.3442727 0.5204553 -1.1596476
000090 7a cf 00 40 a1 75 ce 3e 00 d9 b8 3f 9c f0 42 3e
       2.0126634 0.4032412 1.4441223 0.19037098
0000a0 60 f7 82 3f 4b 3a 83 be 82 74 ca 3f 51 e8 aa 3f
       1.0231743 -0.25630412 1.5816805 1.3352147
0000b0 6c 90 92 3f 60 22 60 c0 b5 65 93 c0 74 bf a4 c0
       1.1450324 -3.502098 -4.6061654 -5.1483707
0000c0 64 45 b3 3f 98 cd cc be 6e 5f 98 3f 04 43 11 40
       1.4005551 -0.40000606 1.1904123 2.2697153
0000d0 63 a7 a6 bf 18 f0 af bf e1 36 e6 40 8b d9 aa 40
       -1.3019832 -1.3745146 7.194199 5.3390555
0000e0 57 fd de 3f af 26 e7 be b5 bd 07 40 01 81 ba 3f
       1.7421063 -0.451467 2.1209538 1.4570619
0000f0 52 e4 9f be 8b 7a de 3f e1 da 60 40 97 66 0e bf
       -0.31228882 1.7381147 3.5133593 -0.5562529
000100 7c 58 e8 be ff db 3a bf ea 7e f1 be a3 b8 08 bf
       -0.45380008 -0.7299194 -0.4716714 -0.53406733
000110 86 12 12 bf d3 d1 e7 be f7 59 c5 3e ea de a3 3f
       -0.57059515 -0.4527727 0.385452 1.2802403
000120 e5 46 e1 3e e6 b6 ab bf b7 6e 56 be 23 fb 22 40
       0.439994 -1.3415191 -0.20940672 2.5465782
000130 56 97 60 bf f1 c6 9c bf 26 ab 96 3f 7a ad 96 3f
       -0.8773092 -1.2248212 1.177098 1.1771691
000140 d2 93 f1 be 3a 98 b7 be 87 59 19 3e e2 b7 e2 3f
       -0.4718309 -0.35858327 0.14975558 1.7712367
000150 0e 0e a9 3f ff e9 6f 3f f9 c9 d9 3f f2 6c 99 3f
       1.3207414 0.93716425 1.7014762 1.1986372
000160 c6 45 b7 bd 68 fa 57 3f 43 a2 fa be 06 b4 f2 3e
       -0.08948855 0.84366465 -0.4895192 0.47402972
000170 6e 90 91 be 0f 27 76 bf 26 db c4 bf 3d 8a e8 be
       -0.28430504 -0.9615335 -1.5379379 -0.45417967
000180 e7 3c b9 be d4 52 73 3e 73 2f 07 3e 93 74 20 bf
       -0.36179277 0.23762065 0.13201694 -0.6267788
000190 bd e0 64 bf 22 78 08 bf 1a 38 ba 3f 9c 27 bb 3e
       -0.89405423 -0.5330831 1.4548371 0.36553657
0001a0 c1 82 22 bf 32 f9 a9 3e eb d7 8a bf b3 7c 28 3f
       -0.63480765 0.33197933 -1.0847143 0.65815276
0001b0 3c f9 95 be b9 3f 1b 3e e5 38 e6 be 7f 19 7b 3e
       -0.29291713 0.15161027 -0.44965282 0.24521445
0001c0 33 ab 2f bf fb 87 55 be 7a 90 f8 be f4 34 b0 3e
       -0.68620604 -0.20852654 -0.48547727 0.344154
0001d0 01 57 98 be 38 0b 90 be 55 11 ed 3e 5b 71 56 3f
       -0.2975388 -0.2813356 0.46302286 0.83766717
0001e0 54 8a 97 3f 3b 99 0d 3f 69 39 d9 be f7 89 a1 be
       1.1839089 0.55311936 -0.42426613 -0.3155057
0001f0 cb e7 a2 3e 98 1c 43 3f 49 85 83 bf a7 78 b1 be
       0.3181747 0.76215506 -1.027505 -0.34662363
000200 04 ca fd 3e 27 77 f4 be c7 b5 85 3f 2a 2d 8f 3d
       0.49568188 -0.47747156 1.0446099 0.06991036
000210 56 43 f4 3d 47 de 2b be b9 c5 75 be e4 c8 51 40
       0.11926906 -0.16784011 -0.24001206 3.2778864
000220 18 52 d1 be d0 c4 a0 3f a2 f5 28 40 ba d9 8c 3e
       -0.40882945 1.2560062 2.6399922 0.27509862
000230 39 d9 11 40 f5 78 ce 3f 9a 52 14 40 87 31 0f 40
       2.2788832 1.6130663 2.3175416 2.237398
000240 83 e3 b9 40 52 e6 41 40 5e 67 21 40 d0 30 24 40
       5.8090224 3.0296826 2.521934 2.5654793
000250 2a 34 c7 3f bd 4e 19 40 76 0c 15 40 e0 d0 e7 3f
       1.5562794 2.3954308 2.3288856 1.8110619
000260 ee b6 1e 40 a6 1a 8c 3f dd 31 a8 3f cb c4 a8 40
       2.4799151 1.0945632 1.3140217 5.2740226
000270 0c 5a df 3e e8 e6 bc bf b7 a5 56 40 a2 34 25 3f
       0.43623388 -1.4757967 3.3538644 0.64533436
000280 0d 0e 2e 3f fc 19 78 bf 43 27 14 3f 32 19 0e 3f
       0.6799019 -0.9691465 0.5787241 0.55507195
000290 fd 9e 2f 3f 13 b3 e6 bd 0c 35 14 bf 9b d1 34 bf
       0.6860197 -0.112646244 -0.57893443 -0.7063233
0002a0 5f cc aa 3e 63 b9 df 3e 4a c3 11 3f 0c 29 00 40
       0.33359048 0.43696126 0.5693861 2.0025053
0002b0 48 1c a1 40 6d a7 99 3e 87 42 47 3f 29 ed 00 40
       5.0347023 0.30010548 0.7783589 2.014475
0002c0 d9 4c 62 3e ca a1 b2 be 3e ab 2a be 5c c3 c1 be
       0.22099628 -0.3488906 -0.16666886 -0.3784436
0002d0 dd 1c a7 bd 0f af da 3e ef a7 ba bf 42 43 4b bf
       -0.08159802 0.42711684 -1.4582499 -0.793995
0002e0 75 2f 9c 3e 1b 57 32 bd fe f1 8f bd b3 39 0e 3f
       0.30504957 -0.0435401 -0.07028578 0.5555679
0002f0 d7 e9 9d 3e dc 44 2a 40 3d cf 53 40 20 41 c8 be
       0.30842468 2.6604528 3.3095238 -0.39112186
000300 04 8e 23 40 d0 dc cb 3f c2 af cf bf 4d dd 07 3f
       2.555543 1.5926762 -1.6225512 0.53072053
000310 cb 15 44 be d6 ce 0a c0 88 2e d9 3f 4e ce 09 40
       -0.19148938 -2.1688743 1.6967325 2.1532168
000320 41 15 96 3f dc 51 29 3f bd 71 80 3f a6 b5 d7 3f
       1.1725236 0.6614053 1.003471 1.685231
000330 ab b0 f6 bf b4 30 b5 bf 78 02 ac be b3 18 a3 3f
       -1.9272665 -1.4155488 -0.33595634 1.2741913
000340 17 04 93 3f e0 d3 3d 3f a6 b9 40 bd dd 77 ad 3f
       1.1485623 0.7415142 -0.04705205 1.3552204
000350 a7 0a 62 3e 91 81 f2 3f a2 8e 52 40 b6 e6 98 3f
       0.22074376 1.894579 3.2899556 1.1945407
000360 b5 ef 85 3f cb 28 84 3f 99 01 5e 40 2b 29 f1 3f
       1.0463778 1.0324949 3.4688475 1.8840688
000370 ac a4 77 bf b4 fe ce 3f 3c 68 82 40 fb 10 a5 3f
       -0.96735644 1.6171479 4.075224 1.2895807
000380 c1 51 87 3f f5 b7 65 c0 12 f0 1a c0 ba 6c 19 c0
       1.0571824 -3.5893528 -2.4209027 -2.3972611
000390 d0 d3 39 c0 0f 6a 4d c0 bf a7 6d c0 12 19 56 40
       -2.903553 -3.2095983 -3.7133634 3.3452802
0003a0 bb 15 1b 40 1e 7b 51 3e 26 d8 5a 40 85 45 4a 40
       2.4232013 0.20457122 3.4194427 3.1604931
0003b0 45 88 b3 3f a5 94 d3 3f 6a 3d 4e be 8f fe db 3f
       1.4025961 1.6529738 -0.20140615 1.718706
0003c0 63 01 6c be c3 95 96 bf df e0 9c bf f2 b6 3d bf
       -0.23047404 -1.1764454 -1.2256125 -0.7410728
0003d0 00 45 a4 be c2 96 3f bf 0e 56 78 be ab f2 ec be
       -0.32083893 -0.74839413 -0.24251577 -0.4627889
0003e0 7f 69 b2 bf e1 75 7a 3f 1b 18 13 bf 3d 5f 1b bf
       -1.3938445 0.9783612 -0.5745866 -0.606922
0003f0 a1 48 29 3f 4d bc 0a 3f 28 ef 43 3f d6 43 c1 3f
       0.6612645 0.54193574 0.765368 1.5098827

bottle_neck.0.conv_block.6.weight f4 [32]
000000 7f 82 1a 40 a9 56 00 3f c6 f2 81 40 00 24 5f 40
       2.4142148 0.5013223 4.0608854 3.4865723
000010 c6 b4 f4 3f ac 9a 26 bf bf 93 cd 3f 9c 27 c1 be
       1.9117668 -0.6507976 1.6060714 -0.37725532
000020 3f d5 70 40 cb 7f 2f 40 13 77 80 bf 6c e8 d0 3e
       3.7630155 2.7421749 -1.0036339 0.40802324
000030 da ab c1 bf 27 cb cc bf 3b be 5c 3f 47 0c dd be
       -1.513057 -1.5999497 0.8622777 -0.4317343
000040 9a d4 dd 3f 3b 76 2a bf 8b a4 56 40 74 30 00 3f
       1.7330506 -0.66586655 3.353793 0.50073934
000050 ab ab 43 40 e0 92 b5 be cc fb 7e 3f bc 38 1f 40
       3.0573528 -0.3546362 0.9960296 2.4878378
000060 e0 d1 21 40 06 91 06 40 02 c2 06 bf 0f d9 51 3e
       2.5284348 2.1026015 -0.5263978 0.20492958
000070 77 ce a8 3e 8f ba b6 be 47 d7 80 be 56 48 1c 3f
       0.3297002 -0.35689208 -0.25164244 0.61047876

bottle_neck.0.conv_block.6.bias f4 [32]
000000 b5 c3 d3 3e c3 54 b2 bf 4f ab be bd 6a 5e fc be
       0.4136025 -1.3932117 -0.09310018 -0.49290782
000010 8b 70 9f 3e 1d 4c 70 3e c1 8a e9 be 99 da 93 3e
       0.3114055 0.23466535 -0.45613673 0.28877714
000020 2c 25 17 bf cf 26 3d 3f 30 2a a2 be 21 cc de 3e
       -0.59041095 0.7388734 -0.31672812 0.43515113
000030 19 fe 80 3e 7a 3c b5 bd d0 99 0f 3f 2e 8e 00 3f
       0.2519386 -0.088494256 0.56094074 0.5021695
000040 7e f8 c7 bf 7e 3f 84 bf 93 02 09 3f bf 8f a9 be
       -1.5622709 -1.0331876 0.5351955 -0.33117482
000050 5e f9 88 3e 55 8c 43 bf 0f fc bb be f8 6f 60 bf
       0.26752752 -0.76386005 -0.36715743 -0.8767085
000060 55 f7 be 3f 0f 7d b8 3e cd 00 3a be 9e be 1d 3f
       1.491923 0.36032912 -0.18164368 0.61618984
000070 bf 6d 3f bf 3b c6 5b be db 9c 2a bf e8 83 a5 3c
       -0.74776834 -0.21462338 -0.6664559 0.0202045

bottle_neck.0.conv_block.6.running_mean f4 [32]
000000 ad 11 a8 42 81 e8 97 c2 28 97 3a 42 53 85 a0 41
       84.03452 -75.95411 46.647614 20.0651
000010 bf e4 d4 c1 1d 69 0d 3f 66 fc c1 41 24 bb 24 42
       -26.611692 0.55238515 24.248241 41.182755
000020 69 4e 17 43 14 b1 22 c3 48 cf 4f 42 4c f1 b4 42
       151.30629 -162.69171 51.952423 90.47128
000030 5e bd a2 c0 95 fd 1f c1 ab 04 9b c2 0f f2 79 c1
       -5.085616 -9.99941 -77.50912 -15.621596
000040 cd 6a 68 41 9a 52 e4 42 87 79 b2 42 d8 34 05 42
       14.526074 114.16133 89.23736 33.301605
000050 1d 81 8a 41 10 26 cc c1 24 57 83 c1 db 32 35 c2
       17.313044 -25.518585 -16.41755 -45.299664
000060 58 07 64 42 cf af 85 42 1a f4 49 c2 d5 2b 7c c2
       57.00717 66.843376 -50.48838 -63.042805
000070 0d 29 11 43 47 df da 41 63 a9 36 42 9d ec 35 41
       145.16035 27.359022 45.665417 11.370267

bottle_neck.0.conv_block.6.running_var f4 [32]
000000 9b 4c 48 46 a4 ae 64 45 fe 58 3c 46 91 6e bb 45
       12819.151 3658.915 12054.248 5997.821
000010 19 dd d2 45 ed ca 30 45 08 06 b7 45 10 c5 d8 45
       6747.637 2828.6829 5856.754 6936.633
000020 f0 05 cc 46 b7 78 d8 46 cf fb 32 46 a6 6f 53 46
       26114.969 27708.357 11454.952 13531.912
000030 91 40 0e 45 05 b5 f2 44 e0 ef ab 45 48 0f e0 45
       2276.0354 1941.6569 5501.9844 7169.91
000040 1e 47 29 45 e6 d6 88 46 e2 f6 91 46 3d 75 61 45
       2708.4448 17515.45 18683.441 3607.3274
000050 7a 30 23 46 4c 1e 5b 45 5f 72 b0 44 2f 8b 16 46
       10444.119 3505.8936 1411.5741 9634.796
000060 c6 47 94 45 2f 4c e7 45 b6 7b 9c 45 b7 a4 72 45
       4744.9717 7401.523 5007.464 3882.2947
000070 61 b6 b4 46 97 fa 2e 45 b0 c8 22 45 e4 74 5e 45
       23131.19 2799.6619 2604.543 3559.3057

bottle_neck.1.conv_block.1.weight f4 [32, 32, 3, 3]
000000 1f ee f1 40 39 4f 5b 40 46 94 85 40 48 cc 5c 40
       7.5603175 3.4267104 4.17435 3.4499683
000010 5c 6a ce 3f 57 4d ba 3e 16 57 6c 40 54 bd a7 3f
       1.6126208 0.3638713 3.6928153 1.3104653
000020 d9 d8 9e 3f 37 f3 87 c0 27 d4 c9 bf 7c ee a8 bf
       1.2409927 -4.2484393 -1.5767869 -1.319778
000030 b5 f1 af be e9 7a 63 bf 98 d4 67 be 2d 3d 47 c0
       -0.34364095 -0.8885942 -0.22639692 -3.1131089
000040 da e6 38 3f b2 e3 6e bf 2d f5 88 40 8e b1 72 40
       0.7222725 -0.93316185 4.2799287 3.792087
000050 2b 52 53 40 cb ba a2 3f a2 fe 33 40 05 c6 e5 3e
       3.3018901 1.2713255 2.8124166 0.4487764
000060 a5 97 11 40 53 7c 21 40 ea 27 31 40 5a 19 8c 40
       2.2748806 2.5232131 2.7680612 4.3780947
000070 f3 29 95 40 05 b8 83 40 83 d3 04 40 55 ea f5 3f
       4.6613708 4.1162133 2.0754097 1.9212137
000080 aa 56 cb 3f 52 bf 05 3f e1 2d f2 3f bd c0 93 3f
       1.5885823 0.52245057 1.8920251 1.1543194
000090 c9 af 7f c0 69 7a c2 c0 49 92 46 c0 8b 20 bf be
       -3.995104 -6.0774426 -3.1026785 -0.37329516
0000a0 1a d3 07 c0 47 60 b2 bf 54 a3 41 c0 fe e1 bb be
       -2.1222596 -1.3935632 -3.0255938 -0.36695856
0000b0 27 a0 8c bf 43 8f 4d c0 2d 51 27 c0 a5 0d ad bf
       -1.0986375 -3.211869 -2.6143296 -1.3519789
0000c0 fd a3 a5 c0 16 73 60 c0 cb 5e 24 c0 75 4d d0 bf
       -5.176268 -3.5070243 -2.5682857 -1.6273638
0000d0 22 1e c4 be e4 3d e4 3e 70 88 a4 40 fd 5e a9 40
       -0.3830424 0.4457847 5.141655 5.2928452
0000e0 8c 10 93 40 49 68 ca 3f 43 c2 19 bf 6c 6d b6 3f
       4.59577 1.5813075 -0.60062045 1.4252143
0000f0 f2 9f 1e 40 3e b3 68 3f e4 d6 ce 3f 13 ab ee 3f
       2.4785123 0.908985 1.615933 1.8645958
000100 dd 6c 0c 40 f2 fd 7e 3f ad 98 39 40 84 31 59 3f
       2.1941445 0.9960624 2.8999436 0.8484118
000110 8f 00 1f 3f 71 5f c3 3e b9 92 b0 bf 0d 01 9f 3d
       0.6211023 0.38158754 -1.3794776 0.07763872
000120 fc ee 8a 40 b1 df 8f 3f 2d ab 8d 40 12 2c 1b 40
       4.341673 1.124014 4.4271455 2.4245648
000130 2c 93 cd 3f 77 71 06 40 9b ff bf 3f cd 07 3d 3f
       1.6060538 2.1006753 1.499988 0.7384003
000140 c5 73 01 40 90 82 8a c0 90 91 8c bf 00 f2 d7 bf
       2.022691 -4.328438 -1.0981922 -1.6870728
000150 e9 4c 92 3c 79 82 be bd e1 11 7d bf f0 4b e4 bf
       0.01785894 -0.093022294 -0.98855406 -1.7835674
000160 7a 4f a9 bf a1 2b 00 c0 2f 1e 92 be 2d 42 e1 bf
       -1.3227379 -2.002663 -0.28538653 -1.759832
000170 bf e1 e6 be fe 28 45 bf 3c fa e8 bf 20 d3 45 3f
       -0.45094106 -0.77015674 -1.8201365 0.77275276
000180 54 da 7d bf 2d 95 6b bf dc 1a 0c bf 5a fc 34 c0
       -0.9916127 -0.920245 -0.54728484 -2.8279023
000190 46 e9 11 3f bd 02 bb bf ca 3e 16 c0 5e 7a 8f bf
       0.5699657 -1.4610211 -2.3475823 -1.1209219
0001a0 82 de 41 c0 a3 27 ee bf 04 3a c6 3f c4 94 e6 bf
       -3.0292058 -1.8605846 1.5486455 -1.801415
0001b0 ef 6c 98 3d 2c 1d 79 bf 6d ef 97 bf 2b 80 2d bf
       0.074426524 -0.9731014 -1.1869942 -0.67773694
0001c0 a6 9b ce bf fd d9 21 3d 06 16 63 3f da 0f d9 3e
       -1.614125 0.03951453 0.8870548 0.42394906
0001d0 af 07 b1 3e 15 82 58 bf 40 af a5 3f c9 1c c1 be
       0.34576175 -0.8457349 1.2944107 -0.37717274
0001e0 e5 6d 96 3f 1b 56 57 40 7d 13 4b 3f 69 69 a9 be
       1.1752287 3.3646305 0.7932661 -0.33088234
0001f0 c4 07 b9 3f db 9b 1a be 00 0d 6b bf 01 48 2a c0
       1.4455495 -0.15098517 -0.9181671 -2.6606448
000200 7b ec 66 3f 86 9c 14 c0 f0 2b 8e bf 01 7b a1 bf
       0.9020459 -2.3220534 -1.1107159 -1.2615663
000210 4f 99 6a c0 87 a5 0e c0 36 7b 2d be ce d5 8b bf
       -3.6656072 -2.228853 -0.16941532 -1.0924623
000220 8d 05 42 c0 7a c8 2c 40 78 f0 93 3f b6 e0 a1 bf
       -3.0315888 2.699736 1.155776 -1.2646701
000230 fc 24 a5 3f 7c 64 3b 3f 22 e0 63 bf 14 b8 38 40
       1.2901912 0.732002 -0.89013875 2.8862352
000240 2a f6 1b 40 75 cf 28 3e 0c 5b 86 3e 16 3c 1e bf
       2.4368997 0.16485389 0.26241338 -0.61810434
000250 e0 09 d6 bf 78 e5 2b bf 90 27 4f 3f 82 dd eb bf
       -1.6721764 -0.67147017 0.8091974 -1.8426974
000260 54 39 22 3f 51 9a eb 3f b4 e8 8c bb 6e 35 d5 3e
       0.63368726 1.8406469 -0.0043002013 0.41642326
000270 a3 65 c7 3f dd 7c a4 bf 30 fe 08 3f 56 78 80 3f
       1.5577892 -1.2850605 0.5351286 1.0036724
000280 f7 b7 ea bf 7e 25 81 bd 0f 7e de 40 6a 2f 77 40
       -1.8337392 -0.06305979 6.952888 3.862269
000290 40 d9 b2 40 ba 3d 0b 40 6c 20 99 3f 35 eb 2c 3f
       5.58902 2.1756425 1.1963019 0.675464
0002a0 54 ec 03 40 5c 52 31 3f b3 60 e4 be 34 c0 c9 3f
       2.0612993 0.69266295 -0.44605026 1.5761781
0002b0 84 dc 34 bf 9e 3d ab 3f ed c7 67 bf 91 56 6f bf
       -0.7064898 1.3378179 -0.9053944 -0.93491465
0002c0 3a 25 0a c0 e7 a7 48 bf 5c 90 82 bf 4e 9c 25 bf
       -2.1585221 -0.783812 -1.0200305 -0.6469163
0002d0 c8 48 08 be c3 a6 3f c0 d4 3d bc 3f 98 fb ac c0
       -0.13309014 -2.9945533 1.4706368 -5.405712
0002e0 c2 8f 2e c0 ac f4 1d c0 4b 54 74 bf 8c fa ca bf
       -2.7275243 -2.4680586 -0.9544112 -1.5857711
0002f0 ee c4 00 bf 04 2b 09 40 c0 d5 3d 40 41 79 91 3f
       -0.5030049 2.1432505 2.9661713 1.1365129
000300 24 08 36 40 14 61 66 3f da 14 b2 3f cf 99 74 3f
       2.8442469 0.8999188 1.3912613 0.95547193
000310 0c 5c 80 3f a3 37 49 bd 3c 7b 94 bf e7 ee 5e c0
       1.002809 -0.049125325 -1.1600108 -3.4833314
000320 66 70 64 c0 56 df 04 c0 d4 5e 62 bf 50 1b 49 c0
       -3.5693603 -2.0761313 -0.88425946 -3.142292
000330 49 11 93 3e aa 77 25 c0 1d 2a 10 c0 0a 30 8b c0
       0.28724125 -2.5854287 -2.2525704 -4.349614
000340 9b 1d 56 c0 33 40 46 c0 2d ed cf bf b8 16 0f c0
       -3.345557 -3.0976684 -1.6244255 -2.2357616
000350 82 26 08 c0 0a 53 ae bf e8 ac 87 bf 15 f6 f3 3e
       -2.1273503 -1.3619092 -1.0599642 0.47648683
000360 13 f4 5a c0 0e 48 a7 c0 a9 f8 81 c0 58 17 39 c0
       -3.421147 -5.2275457 -4.061604 -2.8920498
000370 c8 0b cf bf 00 56 c8 bf 57 f4 80 3e d2 a0 80 be
       -1.617547 -1.5651245 0.25186417 -0.25122696
000380 96 b1 79 bf 04 34 ba 40 81 be 2b 40 0f 62 c8 40
       -0.975366 5.8188496 2.6835024 6.26197
000390 97 b4 4f 40 9d e5 9d 3f b8 88 a3 3e 02 a3 d6 3f
       3.2453973 1.2335697 0.31940246 1.6768496
0003a0 e1 b6 22 bf e1 37 00 3f 33 ee a1 bf e3 2c 1e bf
       -0.635603 0.50085264 -1.2650818 -0.6178724
0003b0 a9 43 76 bf 1c 02 ab bf cf 52 07 40 83 08 89 40
       -0.9619699 -1.3360019 2.1144292 4.282289
0003c0 c3 33 55 bf cc 98 d3 be 27 e6 d1 3e 8e 68 f0 3e
       -0.8328211 -0.41327512 0.40995905 0.4695477
0003d0 9d 70 3e c0 a3 34 22 3f fc 95 ed bf 90 c6 05 c0
       -2.9756234 0.6336157 -1.8561397 -2.0902443
0003e0 46 92 b5 bf e3 dd 49 3e 73 79 95 c0 08 b7 03 3e
       -1.4185264 0.1971355 -4.6710753 0.1286279
0003f0 f3 24 cf 3f df 97 29 bf d1 80 82 3f f0 25 ba be
       1.6183151 -0.6624736 1.0195562 -0.3635707

bottle_neck.1.conv_block.2.weight f4 [32]
000000 6d e9 37 40 29 7d 56 3f 47 2d df bd 9b 9e 20 bd
       2.8736222 0.8378473 -0.10897308 -0.039213758
000010 9d 34 96 3f 53 5e 81 3b 2d 47 10 3f 8c 15 b7 3f
       1.1734806 0.003948012 0.56358606 1.430345
000020 f0 5d ba 3d 66 d5 2d c0 9d 53 cf bc f6 61 86 bd
       0.090999484 -2.7161498 -0.025308425 -0.06561653
000030 52 a4 60 3d 20 5f 27 be 4a 90 ca 40 3d 07 ba 40
       0.054844208 -0.16344881 6.3301134 5.8133836
000040 09 48 4a c0 38 cc 44 c0 82 e5 44 3d 54 67 12 3e
       -3.1606467 -3.0749645 0.04807044 0.14297229
000050 c3 b2 fd 3f 38 cd 17 c0 1b 67 53 3e c6 63 4d 3d
       1.9820179 -2.3719006 0.206448 0.05014398
000060 23 4f d3 be 12 ad d1 3f ce c1 21 3e 8b cc c8 bf
       -0.41271314 1.6380942 0.15796587 -1.5687422
000070 02 55 c0 3f 7b 20 40 3e cd 61 f8 3f e8 ac 0a c0
       1.5025942 0.1876239 1.9404846 -2.1668034

bottle_neck.1.conv_block.2.bias f4 [32]
000000 ec 23 13 c0 24 2e 1e c0 d0 ed 7b bf 3c fe de bf
       -2.2990675 -2.4715662 -0.9840975 -1.7421336
000010 61 a7 67 3e 19 52 a6 be ca 34 c5 bf b4 df bd bf
       0.22622444 -0.3248451 -1.5406735 -1.4833894
000020 bf bc f0 bf f1 eb 79 c0 24 73 b5 bf 3b 93 3a bf
       -1.8807601 -3.9050257 -1.4175763 -0.72880906
000030 31 78 eb bf 19 04 44 bf c6 36 7f c0 97 32 83 c0
       -1.8396055 -0.7656875 -3.987718 -4.0999255
000040 de 37 2a 3f a3 10 4a c0 37 3b 32 bf c1 3a bf bf
       0.66491497 -3.1572654 -0.69621605 -1.4939805
000050 3b 4a 27 3e 3e f7 96 c0 37 85 a0 bf e0 11 ee bf
       0.1633691 -4.717681 -1.2540654 -1.8599205
000060 59 e8 25 c0 81 90 29 c0 b7 ad 82 bf 10 76 fe bf
       -2.5923064 -2.6494448 -1.0209264 -1.987978
000070 d4 34 18 c0 18 bf 2e bf 67 9d 80 bf d5 b4 45 c0
       -2.3782244 -0.68260336 -1.0048035 -3.089162

bottle_neck.1.conv_block.2.running_mean f4 [32]
000000 8f 8b 18 c3 47 f4 02 c3 f5 cf a5 c1 24 29 02 41
       -152.54515 -130.95421 -20.726542 8.135044
000010 4e 7a 31 c2 f1 72 0e c0 94 29 b4 c1 96 7f e0 41
       -44.36944 -2.2257655 -22.520302 28.062298
000020 7f 46 02 41 3f 77 1d c2 76 5d fb c0 2f 84 b5 3e
       8.142211 -39.36645 -7.855159 0.3545241
000030 49 63 1f c2 0e c1 dc be 1b be 54 c3 40 7f 4f c3
       -39.84696 -0.4311604 -212.7426 -207.49707
000040 8d b9 67 41 9d 19 55 42 fe 0b f3 40 85 9d 85 41
       14.4828005 53.275013 7.595214 16.701914
000050 b8 68 e0 c2 d0 eb 95 c2 dd 5a 06 41 88 4e b1 c0
       -112.20453 -74.96057 8.397183 -5.5408363
000060 b0 74 a1 c1 78 c0 c1 c2 91 d3 fc 40 a2 fc ca c2
       -20.181976 -96.875916 7.900826 -101.49342
000070 bf c5 0e c2 65 da a9 c0 bb b5 1b c2 7c 54 dd 41
       -35.69311 -5.3079095 -38.92747 27.666252

bottle_neck.1.conv_block.2.running_var f4 [32]
000000 51 3d 32 48 db f9 c6 46 8d fe 3f 44 a6 d3 21 45
       182517.27 25468.928 767.97736 2589.228
000010 40 7e 74 47 52 97 17 45 cb e4 e4 44 31 4d d5 47
       62590.25 2425.4575 1831.1498 109210.38
000020 a1 9d 22 44 ca dc dc 46 0b 4e 5e 44 ca 6f b5 43
       650.46295 28270.395 889.2194 362.87335
000030 76 33 8c 44 da ff b5 43 87 9c ac 47 a6 16 2c 47
       1121.6082 363.99884 88377.055 44054.65
000040 be 57 5c 45 8c d7 44 46 19 4b 84 45 55 8d 10 45
       3525.484 12597.887 4233.387 2312.8333
000050 b2 59 49 46 3b 58 4e 47 8e 2c 4a 45 e4 96 3b 45
       12886.424 52824.23 3234.7847 3001.4307
000060 ef 28 6a 44 8a a2 11 47 d3 dc 41 44 ad 7f 6b 46
       936.6396 37282.54 775.4504 15071.919
000070 82 af cb 47 0f bf a5 44 8f af 58 47 13 70 36 47
       104287.016 1325.9706 55471.56 46704.074
